Model: "sequential_9"
┏━━━━━━━━━━━━━━━━━━━━━━━━━━━━━━━━━┳━━━━━━━━━━━━━━━━━━━━━━━━┳━━━━━━━━━━━━━━━┓
┃ Layer (type)                    ┃ Output Shape           ┃       Param # ┃
┡━━━━━━━━━━━━━━━━━━━━━━━━━━━━━━━━━╇━━━━━━━━━━━━━━━━━━━━━━━━╇━━━━━━━━━━━━━━━┩
│ dense_53 (Dense)                │ (None, 256)            │         4,096 │
├─────────────────────────────────┼────────────────────────┼───────────────┤
│ dense_54 (Dense)                │ (None, 256)            │        65,792 │
├─────────────────────────────────┼────────────────────────┼───────────────┤
│ dropout_18 (Dropout)            │ (None, 256)            │             0 │
├─────────────────────────────────┼────────────────────────┼───────────────┤
│ dense_55 (Dense)                │ (None, 256)            │        65,792 │
├─────────────────────────────────┼────────────────────────┼───────────────┤
│ dense_56 (Dense)                │ (None, 256)            │        65,792 │
├─────────────────────────────────┼────────────────────────┼───────────────┤
│ dropout_19 (Dropout)            │ (None, 256)            │             0 │
├─────────────────────────────────┼────────────────────────┼───────────────┤
│ dense_57 (Dense)                │ (None, 256)            │        65,792 │
├─────────────────────────────────┼────────────────────────┼───────────────┤
│ dense_58 (Dense)                │ (None, 256)            │        65,792 │
├─────────────────────────────────┼────────────────────────┼───────────────┤
│ dropout_20 (Dropout)            │ (None, 256)            │             0 │
├─────────────────────────────────┼────────────────────────┼───────────────┤
│ dense_59 (Dense)                │ (None, 256)            │        65,792 │
├─────────────────────────────────┼────────────────────────┼───────────────┤
│ dense_60 (Dense)                │ (None, 256)            │        65,792 │
├─────────────────────────────────┼────────────────────────┼───────────────┤
│ dropout_21 (Dropout)            │ (None, 256)            │             0 │
├─────────────────────────────────┼────────────────────────┼───────────────┤
│ dense_61 (Dense)                │ (None, 256)            │        65,792 │
├─────────────────────────────────┼────────────────────────┼───────────────┤
│ dense_62 (Dense)                │ (None, 2)              │           514 │
└─────────────────────────────────┴────────────────────────┴───────────────┘
 Total params: 1,592,840 (6.08 MB)
 Trainable params: 530,946 (2.03 MB)
 Non-trainable params: 0 (0.00 B)
 Optimizer params: 1,061,894 (4.05 MB)

